model_weights/final_model.pt (torch_old, 88553 bytes, 6 tensors)

fc1.weight f4 [128, 37]
0	0xbe2cbc3e	-0.16868684
1	0x3bcd456a	0.0062643783
2	0x3d241023	0.04005445
3	0xbbe54e3e	-0.0069978526
4	0xbebaf599	-0.365155
5	0xbda3e8a3	-0.08003356
6	0x3da821e7	0.08209591
7	0x3e322537	0.17397009
8	0x3d759a23	0.05996145
9	0xbd705e51	-0.058683697
10	0xbe4d0fb6	-0.20025524
11	0x3c8d25b6	0.017229896
12	0xbe9cc8b1	-0.30621865
13	0x3c7e23cc	0.015511464
14	0xbeb07e3a	-0.34471303
15	0xbee2ea38	-0.4431932
16	0x3e41f6f7	0.18941866
17	0x3e01bdb3	0.12670021
18	0x3dd597e8	0.104293644
19	0xbe38e489	-0.18055929
20	0xbe221174	-0.1582697
21	0x3ebf8367	0.3740494
22	0xbe4dbc10	-0.20091271
23	0x3df6cf35	0.1205124
24	0x3dcefb8c	0.101065725
25	0xbe4724a0	-0.19447565
26	0x3e8534fd	0.2601699
27	0xbde015bf	-0.10941648
28	0xbe6a3f69	-0.22875752
29	0xbd13a4f4	-0.036045983
30	0xbded2e60	-0.11581111
31	0x3e27ca19	0.16385688
32	0xbe48abf2	-0.19596842
33	0x3c7fbabf	0.015608489
34	0xbe9f8670	-0.31157255
35	0xbdfd0a62	-0.12355496
36	0xbdbe1446	-0.092812106
37	0x3e282539	0.1642045
38	0xbe42ad65	-0.19011457
39	0x3ea7cd3c	0.3277377
40	0xbe064eb4	-0.1311596
41	0xbf0242e7	-0.50883335
42	0xbc93f5eb	-0.018061599
43	0xbe80c647	-0.25151274
44	0xbd977008	-0.07394415
45	0xbd3a1a45	-0.04543521
46	0xbeec30f7	-0.46131107
47	0x3dcf8ab4	0.101338774
48	0xbe362403	-0.17787175
49	0x3e0672ad	0.13129683
50	0xbd2a1bd9	-0.041530464
51	0x3de3b699	0.11118812
52	0x3e5ccc67	0.21562348
53	0x3db1308c	0.08651838
54	0xbe9b4d88	-0.3033259
55	0xbdab87af	-0.08375489
56	0xbed95448	-0.42447114
57	0xbe74fdd5	-0.23924954
58	0xbe4b36dd	-0.19845147
59	0xbd5775d0	-0.05260259
60	0x3eca0139	0.39454058
61	0x3e60c4fb	0.21950142
62	0xbebca34a	-0.3684333
63	0x3e6ec39c	0.23316807
64	0x3d524e95	0.051344473
65	0x3e4d04f5	0.20021422
66	0x3dc0b137	0.09408801
67	0x3e232d73	0.15935306
68	0x3e745314	0.23859817
69	0xbe2b2705	-0.16714104
70	0xbe7167ad	-0.23574705
71	0xbe93f985	-0.28901306
72	0xbd75d019	-0.06001291
73	0x3b9be8fc	0.0047579985
74	0x3e35d94c	0.17758673
75	0x3d6f084b	0.05835752
76	0x3dd14ca1	0.10219694
77	0xbf189b6e	-0.59612167
78	0x3e06189d	0.13095327
79	0xbef56204	-0.47926342
80	0xbdb49c29	-0.08818848
81	0x3de4fb02	0.111806884
82	0x3ec9f49d	0.39444438
83	0x3d73806a	0.059448637
84	0x3e47e789	0.19521917
85	0xbdc18a4d	-0.09450207
86	0xbe2200a2	-0.15820554
87	0xbe127fc5	-0.14306553
88	0xbe5f150e	-0.21785375
89	0xbe3e3b2d	-0.18577261
90	0x3e442cfc	0.19157785
91	0x3df9c7c2	0.12196304
92	0xbe5caa6f	-0.2154939
93	0x3f09aebc	0.5378225
94	0xbe55ef9a	-0.20892182
95	0xbeea9798	-0.45818782
96	0x3e565e5a	0.2093443
97	0x3db07470	0.08615959
98	0xbed27e7c	-0.41112125
99	0xbce85d54	-0.028364815
100	0x3d9eb7f7	0.07749932
101	0x3e016fe9	0.12640347
102	0xbe25590a	-0.16147247
103	0x3cb72c64	0.022360034
104	0x3cd40574	0.025881507
105	0xbca3b293	-0.019982612
106	0xbe2f9b13	-0.17149
107	0xbea11795	-0.31463304
108	0x3cd2e1b4	0.02574239
109	0xbbc0bf17	-0.0058821547
110	0xbc113f18	-0.00886514
111	0x3e5271ce	0.20551226
112	0x3e0fade2	0.14031175
113	0xbcf55011	-0.029945405
114	0x3cd5813e	0.026062604
115	0xbe1efb2b	-0.155255
116	0x3cabf89e	0.020992573
117	0xbd2af66f	-0.041738924
118	0x3e1faa7b	0.15592377
119	0x3c83e77d	0.016101593
120	0xbe857d58	-0.26072192
121	0x3d801831	0.06254614
122	0x3bbf3425	0.0058350735
123	0x3c88b14f	0.01668611
124	0xbd94b0d2	-0.07260288
125	0xbd0cb98f	-0.03435665
126	0xbdc51660	-0.09623408
127	0x3e0ad7d2	0.13558891
128	0xbdc938c6	-0.09825282
129	0x3d236ea8	0.039900452
130	0x3d13c9d0	0.036081135
131	0x3e51268e	0.20424864
132	0xbf18856f	-0.59578604
133	0x3c9f871b	0.019473603
134	0x3d005e70	0.031340063
135	0xbe2a6db8	-0.16643417
136	0x3da84301	0.08215905
137	0xbd24ac08	-0.040203124
138	0x3d7408c2	0.059578665
139	0x3e160ca9	0.14653267
140	0x3e8a58ee	0.27020973
141	0x3e483352	0.19550827
142	0x3ecc1c19	0.39865187
143	0xbe8588b5	-0.26080862
144	0xbd12ac2d	-0.03580873
145	0xbf337ef2	-0.7011558
146	0x3d764f92	0.060134478
147	0xbbdaa91f	-0.006672993
148	0x3e1e34ea	0.15449873
149	0xbeb4286e	-0.35187095
150	0xbe923059	-0.2855251
151	0xbee34a41	-0.4439259
152	0xbe1e8de0	-0.15483809
153	0x3e0b218f	0.1358702
154	0x3e72858b	0.23683755
155	0xbe0b6af7	-0.13615023
156	0xbe8b07de	-0.2715444
157	0xbf6eb132	-0.9323913
158	0xbe42929d	-0.19001241
159	0x3da957a4	0.08268669
160	0xbc2809f6	-0.010256281
161	0xbd4322d4	-0.047640637
162	0xbd2da522	-0.04239381
163	0xba6875fe	-0.000886768
164	0xbc973df5	-0.01846216
165	0xbe1b5c3b	-0.15171902
166	0xbe482d38	-0.195485
167	0x3e2f3c4c	0.17112845
168	0xbe3b8cd6	-0.18315443
169	0x3cffa350	0.031205803
170	0x3ea340d0	0.31885386
171	0xbee08d3f	-0.43857762
172	0x3da0f366	0.078589246
173	0xbc61f7f0	-0.013792023
174	0xbc412997	-0.011789701
175	0x3b7d1695	0.0038618196
176	0x3eb412d5	0.35170618
177	0xbea030cc	-0.3128723
178	0x3e33b96d	0.17551203
179	0xbe5c7a07	-0.21530925
180	0x3ace39ac	0.001573374
181	0x3cbc255e	0.022967037
182	0x3e300107	0.17187892
183	0x3e0f6f7a	0.14007369
184	0xbb918481	-0.0044408445
185	0x3dc56c89	0.09639842
186	0xbc53958b	-0.012914072
187	0xbd8ecd9f	-0.06972813
188	0xbda721df	-0.08160757
189	0xbb0610c2	-0.0020456766
190	0x3e8a3cc1	0.26999477
191	0xbdb48e09	-0.088161536
192	0xbe9869b6	-0.2976815
193	0xbe24fa2a	-0.16111055
194	0xbf6717ae	-0.9027051
195	0xbd742e8c	-0.059614703
196	0xbcfba69f	-0.0307191
197	0x3d47a2b8	0.048739165
198	0xbe2b7f9b	-0.16747896
199	0xbddf47a7	-0.109023385
200	0x3d85894b	0.06520327
201	0x3dacb97d	0.084338166
202	0xbdad072d	-0.08448634
203	0xbe77ca96	-0.24198374
204	0xbd9f8aa1	-0.07790113
205	0x3e6c6c0c	0.23088092
206	0xbded0e2b	-0.11574968
207	0x3e1042c2	0.14087966
208	0x3c9154bc	0.0177406
209	0x3e6b5156	0.22980246
210	0x3d507dd8	0.050901264
211	0x3df099a3	0.11748054
212	0xbdab0767	-0.08351021
213	0xbd96b502	-0.07358743
214	0x3d98ea13	0.07466521
215	0x3d447c02	0.047969826
216	0x3e128bc6	0.14311132
217	0xbe0a5e37	-0.13512503
218	0xbd8550b1	-0.06509531
219	0xbe40249c	-0.18763965
220	0xbc2f7d89	-0.010711082
221	0x3d94c632	0.07264365
222	0xbdb13ac9	-0.086537905
223	0xbd56e36f	-0.05246299
224	0x3db70a57	0.08937519
225	0x3e13ce34	0.14434129
226	0xbc7f37df	-0.015577286
227	0xbe2dde14	-0.16979247
228	0xbd64eeb8	-0.055891722
229	0x3d99de2b	0.07513078
230	0x3e22f7e5	0.15914877
231	0x3d899458	0.067177474
232	0x3e197271	0.14985062
233	0x3e2640f0	0.16235709
234	0x3d4c6dae	0.049909286
235	0xbd60b009	-0.05485538
236	0x3d93d581	0.07218457
237	0xbd7cc145	-0.061707754
238	0xbde01eb2	-0.10943355
239	0x3e22cad4	0.15897685
240	0xbbc48d21	-0.005998269
241	0x3ddc6ce6	0.10762958
242	0x3d35a8ac	0.04435031
243	0xbde1fa19	-0.110340305
244	0x3e1384db	0.14406149
245	0xbd73cb49	-0.05952004
246	0x3e0e7da2	0.13915113
247	0xbe6bc3ab	-0.2302386
248	0x3dd6cd4d	0.10488377
249	0x3d202484	0.039097324
250	0xbd8c3a37	-0.06847041
251	0x3e1f05ab	0.15529506
252	0x3ec85df8	0.39134192
253	0xbdcfae85	-0.10140709
254	0xbeaaf5c7	-0.33390638
255	0xbef3b452	-0.4759851

fc1.bias f4 [128]
0	0xbcc585a1	-0.02411157
1	0x3d459ab7	0.04824325
2	0xbdcaaab4	-0.0989584
3	0x3cad4f5c	0.021156006
4	0xbc8a1d5c	-0.016859703
5	0xbd8a08a5	-0.0673993
6	0x3e034c70	0.12822127
7	0x3dae0ea8	0.08498889
8	0xbe5c4f85	-0.2151471
9	0xbcca123d	-0.0246669
10	0xbddcd6d5	-0.107831635
11	0xbd645f95	-0.055755217
12	0x3cb9a8db	0.022663524
13	0x3d062e65	0.03275909
14	0xbdcc21b9	-0.099673696
15	0x3d8f1053	0.069855355
16	0x3dc84509	0.097787924
17	0xbcd34ec3	-0.025794392
18	0xbd204c89	-0.03913549
19	0xbd3f82f3	-0.046755742
20	0xbde17fcb	-0.11010703
21	0x3d81b250	0.063328385
22	0x3e6fbaab	0.23411052
23	0xba179150	-0.0005781846
24	0x3c00a22a	0.007851163
25	0x3e1ea8c3	0.15494065
26	0x3e3e880c	0.18606585
27	0xbe11703e	-0.14202973
28	0xbdcde093	-0.100526
29	0xbe5719e0	-0.21005964
30	0x3e01b849	0.12667955
31	0x3dcc9fe1	0.09991432
32	0xbdbbce34	-0.091701895
33	0x3d2294d3	0.03969271
34	0x3bbb3764	0.00571339
35	0xbdef590e	-0.11686908
36	0x3d20dd68	0.03927365
37	0x3dc57cd5	0.096429504
38	0x3cb9a1c9	0.022660153
39	0x3c44497a	0.011980409
40	0x3d34ef4e	0.04417353
41	0x3db9166c	0.0903748
42	0x3e0ba35c	0.13636535
43	0xbd38bb99	-0.045100782
44	0x3dc909d0	0.09816325
45	0xbcfa2e8b	-0.030539772
46	0x3cc54022	0.024078432
47	0xbde33619	-0.11094303
48	0xbe0e48f6	-0.1389502
49	0x3d39c8c0	0.045357466
50	0x3d98e53e	0.074655995
51	0xbac2d7fd	-0.0014865395
52	0x3d8a40cc	0.0675064
53	0x3cfd4c14	0.030920066
54	0x3d910c46	0.07082419
55	0x3bb9359a	0.0056521418
56	0xbdda5936	-0.10661547
57	0xbd0f7bf1	-0.03503031
58	0x3d1b21b8	0.037873954
59	0xbcf3f4ef	-0.02977988
60	0xbe061fe7	-0.13098107
61	0x3d9d0bde	0.07668279
62	0x3ca7e1ae	0.020493355
63	0xbd837cf3	-0.064203165
64	0x3de61b69	0.11235697
65	0x3cd89cbd	0.026441926
66	0x3dbe59ee	0.092944965
67	0xbd0fbfa5	-0.035094876
68	0xbdd2337a	-0.102637246
69	0xbdd46eb8	-0.103726804
70	0xbc3e7507	-0.011624581
71	0x3c2ca678	0.010537736
72	0x3dd23743	0.102644466
73	0xbddadb34	-0.10686341
74	0xbe1da71c	-0.15395778
75	0xbbe5fb1f	-0.0070184614
76	0x3e20f8aa	0.15719858
77	0xbe518cbb	-0.2046384
78	0x3d9598d9	0.07304544
79	0x3ce255b3	0.027628755
80	0xbe0b476a	-0.13601461
81	0x3d7229e6	0.05912199
82	0xbd8cea84	-0.06880668
83	0xbe1aae88	-0.15105641
84	0xbd959ab4	-0.07304898
85	0x3da05cc2	0.07830192
86	0x3dbaf417	0.09128588
87	0xbd656c56	-0.05601152
88	0xbd999293	-0.0749866
89	0xba78d614	-0.00094923493
90	0x3d94828e	0.07251464
91	0xbca7c4be	-0.020479556
92	0xbe6e88e4	-0.23294407
93	0xbd860342	-0.0654359
94	0x3b17ad32	0.0023144004
95	0x3e485f3e	0.19567582
96	0x3d81e040	0.063416004
97	0xbdac7a19	-0.08421726
98	0x3d1dbc56	0.03850969
99	0x3dfa37eb	0.12217697
100	0xbe2a1d57	-0.16612755
101	0xbe4a1429	-0.19734253
102	0x3e02bf6f	0.12768339
103	0x3e0734e8	0.13203776
104	0xbe61bd61	-0.22044899
105	0xbe3d4866	-0.18484649
106	0xbd38d205	-0.045122165
107	0x3d55fd24	0.052243367
108	0xbe36da21	-0.17856647
109	0x3cef1b9d	0.029187972
110	0x3d5f18e6	0.054467104
111	0xbd9d6452	-0.0768515
112	0x3ca1b065	0.019737432
113	0xbdca8219	-0.098880954
114	0xbd847fe5	-0.064697064
115	0x3da0e6c3	0.07856514
116	0xbc185eeb	-0.009299974
117	0x3e192e20	0.14959002
118	0xbd40b60f	-0.047048625
119	0xbcd0ada8	-0.02547343
120	0xbd6964c0	-0.05698085
121	0x3e028716	0.12746844
122	0xbdbef487	-0.09323984
123	0xbdeedefc	-0.11663625
124	0xbd68c93f	-0.05683255
125	0x3be41a52	0.0069611454
126	0x3e584090	0.21118379
127	0x3d4c682e	0.04990404

fc2.weight f4 [128, 128]
0	0xbe0bb731	-0.136441
1	0x3dc97ede	0.09838651
2	0xbd821aa2	-0.06352736
3	0x3e08f375	0.13374121
4	0xbe348b31	-0.17631222
5	0x3bcf7338	0.006330874
6	0x3e494ba9	0.19657768
7	0x3db42ee9	0.0879801
8	0xbd14d2af	-0.036333736
9	0x3c5b38a1	0.013380201
10	0x3e26a5e2	0.16274217
11	0xbe67071b	-0.22561304
12	0x3d2013d4	0.03908141
13	0xbe986c7d	-0.2977027
14	0xbb74c049	-0.0037346056
15	0x3d432426	0.047641896
16	0x3d41045d	0.0471233
17	0xbe0633a1	-0.13105632
18	0xbc818c74	-0.015814044
19	0x3dcd77c0	0.10032606
20	0x3d8de85b	0.06929084
21	0x3c99d009	0.018775957
22	0xbdf8b153	-0.12143197
23	0xbc9ef4cf	-0.019403843
24	0xbe51f60a	-0.20504013
25	0xbe202a36	-0.15641102
26	0x3e9336f6	0.2875287
27	0xbd74e5f1	-0.0597896
28	0xbdb23b84	-0.08702758
29	0x3d8c6f7b	0.06857201
30	0x3cc68e14	0.02423767
31	0x3d5ee99a	0.054422
32	0x3d9eb0d7	0.07748573
33	0x3c723ac4	0.014784519
34	0x3cb99804	0.022655495
35	0xbd1fc057	-0.03900179
36	0x3d3e9d1a	0.046536542
37	0xbe87664b	-0.2644523
38	0xbc6b78aa	-0.01437203
39	0xbd0079bd	-0.0313661
40	0xbe54557b	-0.20735733
41	0xbdc1c531	-0.094614394
42	0xbd8deddb	-0.06930133
43	0x3de5f18b	0.11227711
44	0x3dd1c405	0.10242466
45	0x3ccafb9e	0.024778184
46	0xbcf28994	-0.029606618
47	0xbe848fb7	-0.25890896
48	0xbcaacb24	-0.020848818
49	0xbca58d7e	-0.02020907
50	0x3e954653	0.29155216
51	0xbe7ea569	-0.24867786
52	0xbe024ab9	-0.12723817
53	0x3db14aeb	0.086568676
54	0xbcf25730	-0.02958259
55	0x3e82d8d7	0.2555606
56	0x3e067e70	0.1313417
57	0xbd4b7d55	-0.049680073
58	0xbedb1094	-0.42786086
59	0x3ce5db32	0.028058622
60	0x3ea7a241	0.32740977
61	0x3d551900	0.052025795
62	0x3c97b688	0.018519655
63	0xbdd2acf0	-0.102868915
64	0xbdba3427	-0.090919785
65	0x3df3179e	0.11869739
66	0x3d75cc46	0.060009263
67	0x3c74d58f	0.014943494
68	0xbe208591	-0.15675952
69	0x3c8a0713	0.016849076
70	0x3db7ee9e	0.089810595
71	0x3e48e9a8	0.19620383
72	0x3d902be3	0.07039621
73	0x3cbd2176	0.023087244
74	0xbe2e5c21	-0.17027332
75	0x3ebe666e	0.37187523
76	0x3ce4181e	0.027843531
77	0xbc48357a	-0.012219781
78	0x3e27b1fe	0.16376492
79	0x3d9c0144	0.07617429
80	0xbd8da6b0	-0.06916559
81	0x3b98386c	0.004645398
82	0x3d87fd80	0.06640148
83	0xbe2079fc	-0.15671533
84	0x3c7c67bb	0.015405591
85	0xbca8164f	-0.02051845
86	0xbe815f09	-0.2526782
87	0x3e24dfb8	0.16100967
88	0xbdc283fb	-0.094978295
89	0xbd1bc481	-0.038029198
90	0x3db3dc71	0.0878228
91	0xbd5723a0	-0.05252421
92	0x3e08fe89	0.13378347
93	0xbe4b1ab6	-0.19834408
94	0x3e2565be	0.16152093
95	0xbece09b8	-0.4024179
96	0xbe583476	-0.21113762
97	0x3d2a4fca	0.04158
98	0xbd77af51	-0.06046993
99	0x3c016023	0.007896456
100	0x3e175c30	0.1478126
101	0x3d17c03f	0.037048575
102	0x3e52dca0	0.20591974
103	0xbd29819f	-0.041383382
104	0xbd730102	-0.059327133
105	0x3c38b418	0.011273406
106	0x3e1e9dc1	0.15489866
107	0x3d915124	0.070955545
108	0x3da4c19b	0.0804474
109	0xbd7a07dd	-0.061042655
110	0x3e374c71	0.17900254
111	0xbd93d88d	-0.07219038
112	0xbd09be4b	-0.033628743
113	0x3e6f9d3b	0.23399822
114	0xbd8c97cd	-0.06864891
115	0x3de99b1e	0.114065394
116	0xbc9ad3df	-0.018899856
117	0xbe609337	-0.21931158
118	0xbda55126	-0.080721185
119	0xbcc824d8	-0.024431631
120	0xbdb6a506	-0.089181945
121	0x3e046369	0.12928547
122	0x3d3f8eb4	0.04676695
123	0x3e29ad8e	0.16570112
124	0x3d9162c5	0.07098917
125	0xbe92a372	-0.28640324
126	0x3d17c60e	0.037054114
127	0x3df0b140	0.11752558
128	0xbdf7b6ab	-0.12095388
129	0x3dcf177f	0.101119034
130	0xbe6f681f	-0.23379563
131	0x3e00a434	0.12562639
132	0xbe63be1c	-0.2224049
133	0x3cfab337	0.030603034
134	0x3ea8e11d	0.32984248
135	0x3dfb817a	0.12280555
136	0xbb34a0e3	-0.0027561716
137	0x3cb1b0d4	0.021690764
138	0xbbc94c52	-0.0061431313
139	0xbdd71601	-0.10502244
140	0x3d0588da	0.032601215
141	0xbe069494	-0.13142616
142	0xbe3cc685	-0.18435104
143	0xbea4f55a	-0.32218438
144	0xbd8ddde2	-0.069270864
145	0x3d20a667	0.039221194
146	0xbdfd728d	-0.123753645
147	0x3e26b065	0.16278227
148	0x3d35b538	0.044362277
149	0x3dcc883a	0.09986921
150	0x3d7ab07c	0.061203465
151	0x3d980241	0.07422305
152	0x3e12253e	0.1427202
153	0xbd4636dc	-0.04839216
154	0x3e0cc349	0.1374637
155	0xbddfec39	-0.10933728
156	0x3cf6e493	0.03013829
157	0xbc6823a8	-0.014168657
158	0x3d839794	0.064253956
159	0xbdb76ada	-0.08955927
160	0xbc44459b	-0.011979486
161	0x3ca28521	0.019838871
162	0x3e27a4e2	0.16371492
163	0x3e0bd2d7	0.13654648
164	0x3d003ce5	0.031308074
165	0xbbb106c0	-0.005402416
166	0xbe86ecfb	-0.26352677
167	0x3d49366e	0.049124174
168	0xbe0f985c	-0.14022964
169	0xbb162633	-0.0022910952
170	0xbe312100	-0.17297745
171	0x3c4acc77	0.01237785
172	0x3d19ccf5	0.037548978
173	0xbda39984	-0.07988265
174	0xbd767648	-0.060171396
175	0xbe27c5e1	-0.16384079
176	0xbe15a2ed	-0.14612933
177	0x3c8a8c03	0.016912466
178	0x3e9381b6	0.288099
179	0xbe34483e	-0.17605683
180	0x3c077435	0.008267452
181	0xbe308047	-0.17236434
182	0xbe30ebc8	-0.17277443
183	0x3de89361	0.11356235
184	0xbe5afd17	-0.21385609
185	0x3e2aa981	0.16666223
186	0xbe565736	-0.20931706
187	0x3e38f0ae	0.18060562
188	0xbe4ce26c	-0.20008248
189	0xbbd91ed5	-0.00662599
190	0x3cc4fd50	0.02404657
191	0x3d1c4ded	0.038160253
192	0x3bb543e0	0.005531773
193	0x3e133e14	0.1437915
194	0xbc0a7bdd	-0.008452383
195	0xbd787294	-0.060656145
196	0xbe5edc78	-0.2176379
197	0xbd3853a3	-0.045001637
198	0x3da5acc1	0.08089591
199	0xbce80145	-0.028320918
200	0xbea96f82	-0.33092886
201	0xbe3ebbeb	-0.18626373
202	0xbe2d3ed3	-0.16918497
203	0x3db9e38a	0.09076603
204	0x3ce294de	0.027658876
205	0xbd9427a4	-0.07234123
206	0xbd333a37	-0.04375669
207	0xbafe8cb1	-0.0019420591
208	0xbdde9220	-0.10867715
209	0xbdda2b7d	-0.10652826
210	0xbdc5a454	-0.09650484
211	0x3e04fe68	0.12987673
212	0xbe1ea023	-0.15490775
213	0xbd3e35b5	-0.046437938
214	0xbd1e9399	-0.03871498
215	0xbc8b3766	-0.01699419
216	0xbe8640ad	-0.2622122
217	0x3e142483	0.14467053
218	0xbe283b62	-0.16428903
219	0x3e1a67ab	0.15078609
220	0x3e45e9b5	0.19327433
221	0xbf005352	-0.50127137
222	0xbe752947	-0.23941527
223	0xbe242385	-0.16029175
224	0x3d061e81	0.032743935
225	0x3e11331f	0.14179657
226	0x3d9763e4	0.073920995
227	0xbde0a188	-0.1096831
228	0x3c1131bb	0.008861954
229	0x3e23483b	0.15945522
230	0xbcb407ab	-0.021976313
231	0xbdbfa5a4	-0.09357765
232	0xbd795141	-0.060868505
233	0x3d652bdf	0.05595004
234	0xbd63658b	-0.05551676
235	0x3c3fddd6	0.011710605
236	0x3e01d256	0.12677893
237	0xbea58d65	-0.32334438
238	0x3de9ddc4	0.114192516
239	0xbe9109ae	-0.28327698
240	0xbe27a370	-0.1637094
241	0x3d8679bc	0.06566188
242	0xbe4ba5f6	-0.19887528
243	0x3c93d21b	0.018044522
244	0xbec8a239	-0.39186266
245	0x3e68168f	0.22664855
246	0x3d7ba6d4	0.061438397
247	0xbe8dd643	-0.2770253
248	0xbe47cf6f	-0.19512723
249	0xbb0beeac	-0.0021351976
250	0x3da5fb6a	0.08104594
251	0x3bf6abd2	0.007527807
252	0x3e3c9210	0.18415093
253	0xbdecf4d8	-0.11570138
254	0x3e6648c8	0.22488701
255	0x3e33ed3e	0.1757097

fc2.bias f4 [128]
0	0x3e9b590c	0.30341375
1	0xbbc84809	-0.006112103
2	0x3d914e9a	0.0709507
3	0x3dfdc64c	0.12391338
4	0xbda06a53	-0.0783278
5	0x3e826233	0.25465545
6	0xbcd41c4f	-0.025892405
7	0xbc4ed372	-0.012623655
8	0x3d79dc30	0.061001003
9	0x3d8992af	0.06717431
10	0x3dfdbf61	0.12390018
11	0x3d4be9dd	0.049783576
12	0xbe15c7f7	-0.14627062
13	0xbbd247a1	-0.0064172302
14	0x3dcdef0f	0.100553624
15	0x3ae62825	0.0017559571
16	0xbdcb7ed2	-0.099362984
17	0x3d41cf2b	0.04731671
18	0xbd8d8578	-0.06910223
19	0xbd8d12df	-0.06888365
20	0xbdde23a2	-0.1084664
21	0xbd43416d	-0.047669817
22	0xbd69cd18	-0.05708036
23	0x3c8b6ee1	0.017020645
24	0x3d87b432	0.066261664
25	0x3d43ec15	0.047832567
26	0xbd8c12d5	-0.068395294
27	0x3d6cbb96	0.057796083
28	0xbb920523	-0.0044561788
29	0xbc09e7ea	-0.008417109
30	0xbe1e0117	-0.15430103
31	0xbcb2a7a1	-0.021808447
32	0x3e6be6fd	0.23037334
33	0x3da49793	0.08036723
34	0x3d4a16aa	0.04933802
35	0xbcf4f932	-0.029903982
36	0x3e3dffa1	0.18554546
37	0xbd32c137	-0.043641295
38	0xbd0df9a4	-0.034661904
39	0xbd3d9fe3	-0.046295058
40	0xbdffa90e	-0.124834165
41	0x3e191bc0	0.14951992
42	0x3caac252	0.020844612
43	0x3ddd36b8	0.108014524
44	0xbde85079	-0.11343474
45	0x3cec7ea2	0.028868977
46	0xbe11d456	-0.14241156
47	0x3e23bbf7	0.15989672
48	0x3eb32a9f	0.34993455
49	0xbe4c34c6	-0.19942006
50	0x3df883f8	0.12134546
51	0xbe026504	-0.12733847
52	0xbd4bbafd	-0.049738873
53	0xbcb3a419	-0.021928834
54	0x3d912f8c	0.07089147
55	0x3e8ba7ec	0.27276552
56	0x3da52ba3	0.08064964
57	0x3db02851	0.0860144
58	0xbd6754e5	-0.056477446
59	0x3d735e80	0.059416294
60	0xbde015f6	-0.10941689
61	0xbda21a80	-0.07915211
62	0xbda576cb	-0.080792986
63	0xbdd32d06	-0.10311322
64	0x3d1d1760	0.03835237
65	0xbdfa1e03	-0.122127555
66	0xbc9e0b2f	-0.019292442
67	0xbd45ab09	-0.048258815
68	0x3de1bf5e	0.110228285
69	0x3cfbf9c3	0.030758744
70	0x3e2620f2	0.16223505
71	0xbce67636	-0.02813254
72	0xbda37b38	-0.079824865
73	0x3e87ea95	0.2654616
74	0xbd71d4ba	-0.059040762
75	0xbd004dde	-0.03132426
76	0x3d719411	0.058979098
77	0xbd89c81c	-0.06727621
78	0xbd8c1ade	-0.06841062
79	0xbdaeb8b5	-0.08531324
80	0xbc166a43	-0.009180608
81	0xbdb2116e	-0.08694731
82	0x3e994b61	0.29940322
83	0x3c515282	0.012776019
84	0x3df8f6c4	0.12156442
85	0xbd7085b3	-0.058721256
86	0xbdf1fb21	-0.11815477
87	0xbb0877fd	-0.0020823472
88	0x3e957744	0.29192555
89	0xbc94af5d	-0.018150026
90	0x3d49045d	0.049076427
91	0x3d24f34e	0.040271096
92	0xbdb5ee81	-0.08883382
93	0x3d8dc089	0.06921489
94	0xbde11cb4	-0.10991803
95	0xbdc80fd4	-0.09768644
96	0x3d1c6a43	0.038187277
97	0xbd415236	-0.047197543
98	0x3cf8ff57	0.030395193
99	0x3ce4f775	0.027950028
100	0x3e887adb	0.2665623
101	0x3d42b5db	0.047536712
102	0xbdb26310	-0.08710301
103	0xbdc87a8d	-0.09789
104	0xbca9651c	-0.020678096
105	0x3d5f2af1	0.05448431
106	0x3c5698f7	0.013097993
107	0x3deabd4a	0.11461885
108	0xbdc4a4fc	-0.09601781
109	0xbde6701b	-0.11251851
110	0xbc974cc3	-0.01846922
111	0xbd8fe24f	-0.07025587
112	0x3dc8657a	0.0978498
113	0xbd0749f3	-0.033029508
114	0x3d5bdde2	0.0536784
115	0x3c7a0731	0.015260504
116	0x3d1db399	0.038501356
117	0xbd981fdc	-0.07427952
118	0xbd324c94	-0.04353006
119	0x3d7e96df	0.0621556
120	0x3d9a6b0f	0.07539951
121	0x3d614a58	0.05500254
122	0xbc4113e6	-0.011784529
123	0x3e8dd070	0.27698088
124	0xbd7a2aaa	-0.061075844
125	0xbd809900	-0.062791824
126	0x3d2e1b61	0.04250658
127	0xbd7317eb	-0.05934898

fc3.weight f4 [4, 128]
0	0x3e948db4	0.2901436
1	0x3df9ce33	0.121975325
2	0x3e0b452c	0.13600606
3	0x3d527225	0.051378388
4	0x3e4f6af3	0.20255642
5	0x3db70297	0.08936041
6	0x3e56277f	0.20913504
7	0xbf05b8a3	-0.5223486
8	0x3d4c8ef0	0.049941003
9	0x3d2f2595	0.04276045
10	0xbe919385	-0.2843286
11	0xbe1304d1	-0.14357306
12	0xbed22695	-0.4104506
13	0xbe644796	-0.22292933
14	0xbd186398	-0.037204355
15	0x3db066c4	0.08613351
16	0x3d621ace	0.055201344
17	0x3e97d584	0.29655087
18	0xbe70ff52	-0.23534897
19	0x3d9b2d65	0.07577018
20	0x3e8ceed1	0.27525952
21	0x3e9cba4a	0.30610877
22	0xbebe0509	-0.37113217
23	0xbd7734f2	-0.060353227
24	0x3d70b763	0.05876864
25	0x3e1097ff	0.14120482
26	0xbcb340a2	-0.021881405
27	0x3e2c25a9	0.16811241
28	0x3e3a8d70	0.18218017
29	0xbda5561c	-0.08073065
30	0xbdd54c91	-0.104149945
31	0x3cc3b528	0.023890093
32	0x3df88df7	0.12136453
33	0x3dc6fc06	0.097160384
34	0xbde807f5	-0.11329643
35	0x3eeb646f	0.45975062
36	0x3dcfc912	0.10145773
37	0xbea80ee1	-0.32823852
38	0xbd58ef23	-0.052962434
39	0x3e9da7a0	0.3079195
40	0x3b8199a2	0.003955082
41	0x3de23fa4	0.11047295
42	0xbe9a566d	-0.30144063
43	0x3e17c8c2	0.14822677
44	0xbdb5abc1	-0.0887065
45	0x3e44a3b4	0.19203073
46	0xbedc9061	-0.43078902
47	0xbd39571f	-0.0452491
48	0x3dde9688	0.10868555
49	0xbe0ca941	-0.1373644
50	0x3e597939	0.21237649
51	0xbd84218a	-0.064517096
52	0xbe82c176	-0.25538224
53	0x3e1b8608	0.15187848
54	0x3eddf8b8	0.4335382
55	0x3db47c47	0.088127665
56	0x3db6b59e	0.089213595
57	0xbca9e5fe	-0.020739552
58	0xbdb1e3af	-0.08686005
59	0xbf132e3c	-0.57492423
60	0xbdf484f9	-0.11939425
61	0x3e67bc99	0.22630538
62	0x3daf6348	0.08563858
63	0x3d51fe09	0.051267657
64	0x3ec9e782	0.3943444
65	0xbeae0497	-0.33987877
66	0xbe66e624	-0.22548729
67	0x3c43842b	0.011933367
68	0x3dbf2e0b	0.09334954
69	0x3dbfa0e2	0.09356858
70	0x3de328ef	0.11091792
71	0x3e433ce9	0.19066204
72	0xbe209f5c	-0.15685791
73	0x3d88c40f	0.0667802
74	0xbe3b00f8	-0.18262088
75	0x3e7d0040	0.24707127
76	0xbd22636b	-0.039645594
77	0x3e13733a	0.14399424
78	0xbd9d9496	-0.07694356
79	0xbe30fcb5	-0.172839
80	0x3e05d684	0.13070112
81	0xbe7a8e6b	-0.2446839
82	0x3e0821af	0.132941
83	0xbec13d59	-0.37742117
84	0x3d85b3c8	0.06528431
85	0x3ee56c62	0.44809252
86	0x3e409180	0.18805504
87	0xbca123e3	-0.019670432
88	0x3db939d9	0.09044237
89	0xbd2394df	-0.039936896
90	0x3d848280	0.064702034
91	0x3e0b89ce	0.13626787
92	0x3e216ec4	0.1576491
93	0x3e34d154	0.17657977
94	0xbe8d9b1e	-0.27657408
95	0xbeb92a42	-0.36165053
96	0x3e541fdf	0.20715283
97	0xbe17c395	-0.14820702
98	0x3d8ac46a	0.06775744
99	0x3efd35d7	0.4945514
100	0x3de08f9d	0.10964892
101	0xbdadf9b7	-0.08494895
102	0x3e509bc7	0.20371924
103	0xbe299e79	-0.16564359
104	0x3ddc00c9	0.10742337
105	0x3e3cc2a5	0.18433626
106	0x3e0adf50	0.1356175
107	0x3e35d00b	0.17755143
108	0xbef1dffd	-0.47241202
109	0xbebab64f	-0.36467215
110	0xbe07c429	-0.13258423
111	0x3cf661c0	0.030075908
112	0x3df84f66	0.12124519
113	0xbe18a12e	-0.14905235
114	0x3ea9ba47	0.3314993
115	0xbe1246b4	-0.14284784
116	0x3e3143ce	0.17311022
117	0xbe54a74c	-0.20766944
118	0xbe9b389c	-0.30316627
119	0xbee5acc1	-0.44858363
120	0x3e499a4e	0.19687769
121	0x3d883e80	0.06652546
122	0xbe91ad78	-0.2845266
123	0x3db06b0a	0.08614166
124	0x3d81ea88	0.063435614
125	0x3ca35be6	0.019941282
126	0xbf1ae6c9	-0.605084
127	0xbd426e19	-0.04746828
128	0x3e028537	0.1274613
129	0x3eb0553f	0.34440038
130	0x3e13058e	0.14357588
131	0x3e1ce0c3	0.15320115
132	0xbd59c5b5	-0.053167064
133	0xbc5b182e	-0.013372464
134	0xbe08cda2	-0.13359693
135	0x3d9220a7	0.07135134
136	0x3db984af	0.090585105
137	0x3e1315db	0.14363806
138	0x3b945abe	0.004527419
139	0xbdf973b9	-0.121802755
140	0xbcca2fcc	-0.024680994
141	0xbe4d301f	-0.20037888
142	0xbcdffda9	-0.027342634
143	0x3e899ad3	0.26875934
144	0x3c46be30	0.012130305
145	0x3dce4f90	0.10073769
146	0x3e78e0d0	0.24304509
147	0x3dc04b6a	0.09389384
148	0x3dc6de94	0.09710422
149	0x3e911db0	0.28342962
150	0x3d254eaf	0.04035824
151	0x3bc2b2b3	0.0059417128
152	0xbc9789f4	-0.018498398
153	0xbe24b2f2	-0.16083887
154	0x3d5751fb	0.052568417
155	0x3ea38878	0.31940055
156	0xbdd31b14	-0.10307899
157	0x3decd496	0.11563985
158	0xbe17f50d	-0.14839573
159	0x3e06cdf2	0.131645
160	0x3e16e4ff	0.14735793
161	0x3dedc9f2	0.11610784
162	0xbdc19b38	-0.09453434
163	0x3e60e5d2	0.2196267
164	0x3e003f34	0.1252411
165	0xbd6f7d38	-0.058469027
166	0xbde39e9f	-0.11114239
167	0x3d0a3251	0.03373939
168	0x3c832f1c	0.016013674
169	0xbd48b819	-0.049003694
170	0x3d948b4f	0.072531335
171	0x3e6136ef	0.21993612
172	0xbce54d46	-0.027990948
173	0xbdcd519c	-0.100253314
174	0xbe555588	-0.20833409
175	0x3db4e772	0.08833207
176	0x3d90ab5d	0.07063935
177	0xbc1049c4	-0.00880665
178	0x3def089f	0.11671566
179	0x3cb89d13	0.022535836
180	0xbb84a05f	-0.004047438
181	0x3e2db64f	0.16964076
182	0x3ed6b856	0.41937512
183	0x3dbc5205	0.091953315
184	0xbd3e7b51	-0.046504322
185	0x3c90b882	0.017666105
186	0xbcca4972	-0.024693225
187	0xbda53442	-0.08066608
188	0xbe1c51cc	-0.15265578
189	0x3e0346c3	0.12819962
190	0xbe11bdf8	-0.14232624
191	0x3d8b117e	0.06790446
192	0x3e21c4d2	0.15797737
193	0xbd836674	-0.06416026
194	0xbe00e4cb	-0.12587278
195	0xbd1943b1	-0.03741807
196	0x3e4e4de8	0.20146906
197	0x3c48b599	0.0122503275
198	0xbdfaa5ee	-0.1223868
199	0x3e7571c6	0.23969182
200	0x3db91e1a	0.090389445
201	0x3da697b3	0.08134403
202	0x3d8bbb51	0.06822837
203	0x3d809a0b	0.06279381
204	0x3da25337	0.07926028
205	0xbcbc7df4	-0.023009278
206	0x3d9e775b	0.07737609
207	0xbb1d4305	-0.0023996246
208	0x3d40f9fc	0.047113404
209	0xbd343bb6	-0.044002257
210	0x3de516a8	0.11185962
211	0xbd663b94	-0.056209162
212	0x3e324c77	0.17411982
213	0x3e76fdc2	0.24120238
214	0x3d9bfba8	0.07616359
215	0xbdca8e7e	-0.098904595
216	0x3deefb81	0.11669064
217	0xbccfe8c6	-0.02537955
218	0x3de9d4d5	0.114175476
219	0x3e5a6115	0.21326096
220	0x3e156bea	0.14591947
221	0x3cd591c4	0.026070483
222	0xbe722bd0	-0.23649526
223	0x3d771e92	0.06033189
224	0x3e533102	0.20624164
225	0x3e313e17	0.17308842
226	0x3e65c7b4	0.22439462
227	0x3eaa5e25	0.33274952
228	0x3d69f6e0	0.057120204
229	0xbdadfbb1	-0.08495272
230	0xbbf8ab99	-0.0075888154
231	0xbd0560d6	-0.032563053
232	0xbdf3cd43	-0.11904385
233	0xbcb1a47b	-0.021684876
234	0x3da65e8f	0.08123504
235	0x3e65e2d2	0.22449806
236	0x3db98538	0.090586126
237	0xbda64de1	-0.08120323
238	0xbdb29e14	-0.08721557
239	0xbd1e20fe	-0.038605683
240	0x3e361929	0.17783035
241	0x3d91513c	0.07095572
242	0xbda91898	-0.08256644
243	0xbc35713c	-0.01107436
244	0x3cd6867c	0.026187174
245	0x3dcebe7d	0.100949265
246	0x3e074aea	0.13212171
247	0xbe0071c5	-0.125434
248	0x3e16d562	0.14729837
249	0xbd231057	-0.039810505
250	0xbe15ea04	-0.14640051
251	0x3de3e138	0.111269414
252	0xbd2c8983	-0.04212333
253	0xbe323454	-0.17402774
254	0xbe2ad622	-0.16683248
255	0xbdf075d6	-0.117412254

fc3.bias f4 [4]
0	0x3e85a95c	0.26105773
1	0x3e84c906	0.2593462
2	0x3e62fb4a	0.22166172
3	0x3e378ec5	0.17925556
